Reinforcement Learning for Resource Leveling problem/trained_model_att.pth (torch, 43189 bytes, 17 tensors)

context f4 [1, 1, 32]
-1.3390745 0.26561764 -0.6773538 0.0065398235 -0.09884338 -0.34151357 1.1163946 0.7751634
-0.31702515 -1.1005293 -1.0634881 -0.51534367 -0.56629825 0.52707976 -0.044749524 -0.39344677
0.58917814 0.48515913 -2.0214312 -0.2966857 0.1061864 0.6894183 -1.7455308 1.0441321
-0.5756789 -0.43223345 -2.3536716 0.13814443 0.43978447 -0.23809354 1.3890861 2.283611
00000000: cb66 abbf 09ff 873e 0f67 2dbf 044c d63b
00000010: 666e cabd deda aebe 05e6 8e3f 1c71 463f
00000020: 1f51 a2be 25de 8cbf 6120 88bf 90ed 03bf
00000030: ecf8 10bf b3ee 063f 474b 37bd db71 c9be
00000040: 61d4 163f c766 f83e 215f 01c0 30e7 97be
00000050: 4178 d93d b87d 303f 8e6d dfbf 1fa6 853f
00000060: b15f 13bf b44d ddbe 8ea2 16c0 bc75 0d3e
00000070: 6e2b e13e cbce 73be 93cd b13f af26 1240

embedding.weight f4 [32, 6]
0.22797208 0.24830532 -0.07953984 -0.23323444 0.1487679 -0.300452 -0.122333005 0.101034544
0.054327283 0.1556887 -0.26594743 -0.04611798 0.05585105 0.29071143 -0.34927142 -0.10429664
-0.13938689 0.18100348 -0.15808691 0.060084227 0.19360596 0.047333423 -0.34926492 0.23439822
0.2741455 -0.4020162 -0.005897248 -0.0403568 0.18609358 0.08394281 -0.16820936 -0.39894038
-0.27029163 -0.24030039 0.12938055 0.37873408 -0.37884372 -0.39814112 0.32731822 0.22390215
0.101542756 0.017889155 -0.2768964 0.20231014 0.27199045 -0.16452108 0.3375534 0.37724882
-0.07805514 -0.19918445 0.0027355922 0.18622153 -0.13046503 0.062289108 -0.3194977 -0.06699843
-0.0563363 -0.1847269 -0.13482511 0.24697654 0.09935943 -0.2060587 -0.2542054 -0.07118241
-0.38642916 0.007691057 -0.26199096 -0.018934162 -0.2447044 -0.23939571 -0.2345614 -0.3205978
-0.017635295 -0.06117433 0.122124135 -0.32056755 -0.17268881 0.07440718 0.061859928 0.08528266
0.12542066 0.11251529 0.3434808 0.09038657 -0.17763552 -0.016476717 0.37293693 0.0029743565
0.06291009 0.3834181 0.052979123 0.025371976 -0.05615787 0.19678399 0.12027716 0.16358194
-0.3982445 0.19627549 0.2096116 -0.1835568 -0.009357217 -0.080722526 0.37067968 0.20179865
0.38012236 0.040764846 0.33343223 -0.06439284 -0.07739717 -0.101175465 -0.2710551 0.025067464
-0.029776772 -0.18037821 -0.067228645 -0.004435443 -0.24621879 -0.21694267 0.21141197 -0.33385643
-0.3787072 -0.09206437 0.12825535 0.21522057 0.1979318 -0.037711438 0.12049078 0.15874724
-0.3533659 -0.1906133 -0.26753062 0.29326668 -0.12153545 -0.10217355 -0.4058346 -0.0016062331
-0.3644391 0.12806681 -0.023750043 -0.36494267 0.02295896 -0.08424794 0.22601782 0.16712445
-0.21419714 -0.24178007 -0.2664976 -0.11162855 -0.11307861 0.1178468 -0.25389558 0.1311529
0.27493235 -0.10776885 -0.05249455 -0.19491896 -0.094879724 -0.1944174 0.006390655 -0.28570417
0.182783 -0.28304017 -0.15043594 -0.24974811 0.22388077 0.28828722 0.23547013 0.17005375
0.32826176 0.1848379 -0.38864875 -0.4048364 -0.0631392 -0.14466277 0.16842195 0.29017434
-0.10609293 0.22268125 0.17808041 0.09531756 0.052776393 0.20605177 0.17469606 0.113321476
0.05882551 -0.31983563 -0.053766746 -0.3892416 -0.40444747 0.0653144 0.070617095 0.13334408
00000000: 8371 693e c043 7e3e c9e5 a2bd 02d5 6ebe
00000010: 9d56 183e d8d4 99be ba89 fabd 33eb ce3d
00000020: 4986 5e3d dc6c 1f3e 432a 88be 35e6 3cbd
00000030: 12c4 643d 21d8 943e b4d3 b2be 7a99 d5bd
00000040: 70bb 0ebe fa58 393e 89e1 21be e11a 763d
00000050: a440 463e b1e0 413d dad2 b2be 1606 703e
00000060: cd5c 8c3e 11d5 cdbe b43d c1bb 2c4d 25bd
00000070: 518f 3e3e 35ea ab3d 133f 2cbe ea41 ccbe
00000080: aa63 8abe 4e11 76be 567c 043e 6fe9 c13e
00000090: cef7 c1be 27d9 cbbe 4196 a73e 9b46 653e
000000a0: a6f5 cf3d 478c 923c 5dc5 8dbe 642a 4f3e
000000b0: 5542 8b3e 3778 28be cdd3 ac3e c226 c13e
000000c0: 60db 9fbd 02f7 4bbe 9f47 333b dbb0 3e3e
000000d0: a098 05be dd22 7f3d 3495 a3be 7936 89bd
000000e0: e4c0 66bd 0c29 3dbe 980f 0abe 6be7 7c3e
000000f0: f57c cb3d 0d01 53be 3627 82be 15c8 91bd
00000100: 0bda c5be 4305 fc3b ae23 86be d11b 9bbc
00000110: ca93 7abe 2624 75be dd30 70be 6525 a4be
00000120: e577 90bc ef91 7abd 381c fa3d 6e21 a4be
00000130: 56d5 30be cb62 983d d660 7d3d ada8 ae3d
00000140: 466e 003e 6b6e e63d b7dc af3e 981c b93d
00000150: 16e6 35be 2efa 86bc 97f1 be3e 6ced 423b
00000160: 01d7 803d 614f c43e a300 593d e4d8 cf3c
00000170: cb05 66bd be81 493e df53 f63d 0682 273e
00000180: b4e6 cbbe 71fc 483e 6ca4 563e 50f6 3bbe
00000190: 034f 19bc da51 a5bd bac9 bd3e 4ea4 4e3e
000001a0: 669f c23e 0af9 263d a1b7 aa3e 65e0 83bd
000001b0: 6882 9ebd 1535 cfbd bcc7 8abe 485a cd3c
000001c0: 6bee f3bc 11b5 38be 2caf 89bd 3157 91bb
000001d0: c720 7cbe 3826 5ebe 617c 583e 3bef aabe
000001e0: e9e5 c1be 3f8c bcbd 5f55 033e c862 5c3e
000001f0: a2ae 4a3e 4f77 1abd dfc3 f63d a38e 223e
00000200: 60ec b4be 2230 43be c6f9 88be 0d27 963e
00000210: 94e7 f8bd 5e40 d1bd 8dc9 cfbe 3d88 d2ba
00000220: c397 babe f223 033e 738f c2bc c4d9 babe
00000230: 6e14 bc3c 2f8a acbd 3771 673e ac22 2b3e
00000240: 7f56 5bbe 3295 77be 6072 88be 829d e4bd
00000250: c295 e7bd aa59 f13d 9afe 81be f24c 063e
00000260: efc3 8c3e eab5 dcbd 8604 57bd d698 47be
00000270: 4d50 c2bd 5b15 47be b368 d13b d147 92be
00000280: 772b 3b3e a4ea 90be e10b 1abe f8bd 7fbe
00000290: 0041 653e 629a 933e 151f 713e 9222 2e3e
000002a0: ed11 a83e 2546 3d3e f8fc c6be b746 cfbe
000002b0: 204f 81bd 7a22 14be ce76 2c3e bb91 943e
000002c0: 4047 d9bd 8e06 643e b65a 363e da35 c33d
000002d0: 0f2c 583d 3cff 523e 86e3 323e 1715 e83d
000002e0: 05f3 703d 7fc1 a3be 853a 5cbd ad4a c7be
000002f0: bd13 cfbe 8ec3 853d b29f 903d 5a8b 083e

embedding.bias f4 [32]
0.3811571 -0.19282062 -0.32196897 0.08850481 -0.01874129 0.179495 -0.21159726 -0.3094625
-0.03687051 -0.08306118 0.28354195 0.14458898 0.18443303 0.09235725 -0.32826835 0.35842153
-0.048814405 -0.027353207 -0.31081742 0.06314136 0.29006454 -0.024013417 0.28913528 -0.23597446
-0.3148182 0.31087863 -0.23858178 -0.109040685 -0.05445327 0.11941779 -0.17872709 0.36513206
00000000: 0627 c33e c572 45be 1ed9 a4be 0342 b53d
00000010: 5587 99bc 8acd 373e f4ac 58be de71 9ebe
00000020: 8805 17bd fb1b aabd 692c 913e 220f 143e
00000030: 03dc 3c3e cc25 bd3d ca12 a8be 0783 b73e
00000040: 9df1 47bd d513 e0bc 7623 9fbe 4250 813d
00000050: 5783 943e c9b7 c4bc 8a09 943e 4aa3 71be
00000060: da2f a1be 7c2b 9f3e c84e 74be b950 dfbd
00000070: 640a 5fbd 5091 f43d 3c04 37be 97f2 ba3e

resource_embed.0.weight f4 [16, 50]
0.036719438 0.0045894296 -0.09522801 0.025537062 -0.01549934 -0.016986541 -0.14108776 0.07190139
0.13334587 0.004622344 0.119043805 -0.07668129 -0.047312047 -0.0052839234 -0.085586846 0.08561846
0.0114587005 0.060850997 0.04360268 0.07302362 0.12837145 -0.0142877875 -0.12970997 0.111703984
0.032477874 0.12658988 -0.030098459 0.0362969 0.008691961 -0.09472032 -0.005635593 -0.03833453
0.056485306 0.01953628 0.07780903 -0.026874784 0.106078774 0.08434464 -0.092409685 0.08440414
-0.09194639 0.06438791 0.08540161 0.09612624 -0.1397674 -0.0029006256 0.087174185 0.067443974
0.11914265 0.12062979 0.0068725245 -0.033928294 -0.12334783 -0.022121724 -0.07398076 -0.0015338279
0.019240417 0.097002305 0.07762497 -0.013245283 -0.062633745 -0.048761133 0.12545997 -0.119790465
-0.07613987 -0.0798966 0.022683227 0.059020486 -0.12292877 -0.11124976 -0.005002091 0.047182295
0.11451126 -0.07516164 -0.13590156 -0.0034200603 -0.05192459 0.07187475 0.05164598 -0.0522492
-0.1358315 0.0034131082 -0.064198226 0.088697456 -0.13072029 0.10870536 0.044992145 0.12787288
0.07098962 -0.09922361 -0.0032627408 -0.1388516 -0.057332028 -0.085461706 -0.11289726 -0.044654973
-0.033912525 0.029889341 0.047334466 -0.10554503 0.117614895 -0.11001639 -0.027978169 0.045859814
-0.09647739 0.0093180705 -0.032388832 -0.0836797 0.07405097 0.09555815 -0.0031026735 -0.13215955
0.13988455 -0.062438626 -0.050045088 -0.063530065 -0.024055393 0.13041992 0.005713074 0.124934465
0.07440623 -0.035606798 0.05240271 -0.06697497 -0.061245784 -0.13193499 0.047303617 -0.048558105
-0.06221003 -0.034970775 0.12559587 0.1015907 -0.04784303 -0.110443085 -0.07253578 -0.115105614
-0.11258865 0.043898623 0.077348284 -0.11447525 0.020746168 0.10578911 0.0013590069 0.046876013
-0.067197084 0.011568486 -0.043973077 -0.07272597 -0.030755894 0.052058265 0.06837455 -0.06097906
-0.13043779 0.082754746 0.12882593 -0.07037458 -0.0988783 -0.12700523 0.09157001 0.089864075
-0.112966396 0.020366691 -0.05559495 0.062670484 0.13899876 0.024687633 0.03212112 -0.13754132
0.020498367 0.06783154 0.12659906 0.10931588 -0.008279094 -0.09925029 0.010758957 0.012558736
-0.066481054 0.04834223 0.094878554 0.029096954 0.008878118 -0.104043074 -0.07916207 0.12658519
0.10573275 -0.016751561 0.065517366 -0.061139204 -0.0074331732 0.10993931 -0.07262803 0.104523934
0.07238306 -0.046915237 -0.08221488 0.11286917 0.08503144 -0.022774043 -0.011454991 -0.06882914
0.08329375 0.028413994 0.03302394 0.11587792 0.08678291 -0.045889802 -0.0024985764 0.0823254
0.009812133 0.0189894 -0.077573314 0.016952714 0.06772854 -0.12979905 -0.09372901 0.10954432
0.030296328 -0.006355423 0.08135871 -0.0067995014 0.07922702 -0.05875395 0.11804431 0.10859749
0.08009238 0.1219424 0.12235143 0.116248354 0.004906172 0.09897777 0.011293023 -0.027342139
-0.07609147 -0.04329629 -0.051517252 -0.08658828 -0.095635846 -0.0486807 0.06549042 -0.05819848
-0.12400861 0.065872125 -0.054075275 0.10436956 -0.13442038 -0.040163703 -0.066762775 0.045129623
-0.12534824 0.02152778 0.049071327 0.05147447 -0.050442763 -0.07801261 0.13423581 -0.09606118
00000000: 1f67 163d ed62 963b e706 c3bd 1a33 d13c
00000010: f2f0 7dbc 5c27 8bbc 4f79 10be 0941 933d
00000020: d28b 083e 0877 973b 3dcd f33d 150b 9dbd
00000030: 47ca 41bd c324 adbb 2848 afbd bb58 af3d
00000040: 46bd 3b3c e53e 793d b998 323d 688d 953d
00000050: ce73 033e 5317 6abc b1d2 04be 0fc5 e43d
00000060: 8507 053d c7a0 013e 0b91 f6bc 0fac 143d
00000070: ba68 0e3c bafc c1bd c8aa b8bb ab04 1dbd
00000080: 235d 673d 8c0a a03c 575a 9f3d 8228 dcbc
00000090: d43f d93d e2bc ac3d 4a41 bdbd 14dc ac3d
000000a0: 644e bcbd cfdd 833d 0ae7 ae3d d6dd c43d
000000b0: 2f1f 0fbe 6c18 3ebb 6188 b23d 1120 8a3d
000000c0: 1001 f43d c00c f73d ea32 e13b 65f8 0abd
000000d0: c99d fcbd 9e38 b5bc 3a83 97bd b90a c9ba
000000e0: 149e 9d3c 25a9 c63d d7f9 9e3d be02 59bc
000000f0: 1f46 80bd c1b9 47bd 9478 003e b454 f5bd
00000100: 38ef 9bbd d4a0 a3bd 2dd2 b93c 77bf 713d
00000110: 14c2 fbbd ead6 e3bd 95e8 a3bb 3942 413d
00000120: e184 ea3d 59ee 99bd c729 0bbe 1723 60bb
00000130: e1ae 54bd 1233 933d bc8a 533d 4203 56bd
00000140: 6a17 0bbe 74ae 5f3b 5c7a 83bd 03a7 b53d
00000150: 8adb 05be eaa0 de3d af49 383d 1cf1 023e
00000160: 0263 913d bf35 cbbd b5d3 55bb 1d2f 0ebe
00000170: fdd4 6abd 8c06 afbd ae36 e7bd 22e8 36bd
00000180: dce7 0abd 7eda f43c c9e1 413d fe27 d8bd
00000190: 14e0 f03d 4650 e1bd 7932 e5bc 80d7 3b3d
000001a0: f095 c5bd d2aa 183c 27aa 04bd 4360 abbd
000001b0: 09a8 973d feb3 c33d 3956 4bbb d554 07be
000001c0: e53d 0f3e a5bf 7fbd 14fc 4cbd 0d1c 82bd
000001d0: d10f c5bc cd8c 053e bd34 bb3b a4dd ff3d
000001e0: 4b62 983d 6fd8 11bd 39a4 563d 2c2a 89bd
000001f0: dcdc 7abd f719 07be 70c1 413d dde4 46bd
00000200: f2cf 7ebd 843d 0fbd 349c 003e c90e d03d
00000210: 0ef7 43bd fc2f e2bd a48d 94bd 7ebc ebbd
00000220: e194 e6bd 0bcf 333d c768 9e3d 0072 eabd
00000230: def3 a93c f6a7 d83d b420 b23a 1001 403d
00000240: a09e 89bd bf89 3d3c 1d1d 34bd 5af1 94bd
00000250: c9f3 fbbc 0c3b 553d f507 8c3d 2ec5 79bd
00000260: 7c91 05be 527b a93d f2ea 033e 8c20 90bd
00000270: b580 cabd a90d 02be 0f89 bb3d a80a b83d
00000280: ed5a e7bd 0cd8 a63c 88b7 63bd 6259 803d
00000290: b155 0e3e b83d ca3c 6f91 033d a2d7 0cbe
000002a0: 31ec a73c 43eb 8a3d 2fa3 013e 01e1 df3d
000002b0: 09a5 07bc bc43 cbbd 5646 303c 28c3 4d3c
000002c0: 3827 88bd 8102 463d b04f c23d bc5c ee3c
000002d0: 8775 113c 8914 d5bd b91f a2bd 8c9f 013e
000002e0: 698a d83d 923a 89bc f82d 863d 1a6d 7abd
000002f0: fa91 f3bb dc27 e13d 01be 94bd a510 d63d
00000300: 923d 943d 312a 40bd 4660 a8bd f427 e73d
00000310: f724 ae3d a190 babc b7ad 3bbc 4bf6 8cbd
00000320: ea95 aa3d 77c4 e83c 1c44 073d 6751 ed3d
00000330: 3dbb b13d f2f6 3bbd 28bf 23bb 389a a83d
00000340: 12c3 203c a88f 9b3c c2de 9ebd 6be0 8a3c
00000350: 43b5 8a3d 0bea 04be fff4 bfbd c658 e03d
00000360: 0130 f83c 2741 d0bb 659f a63d 5ace debb
00000370: c741 a23d fba7 70bd 37c1 f13d 5c68 de3d
00000380: 7907 a43d f0bc f93d 6393 fa3d 9e13 ee3d
00000390: f4c3 a03b dbb4 ca3d 5f06 393c 9ffc dfbc
000003a0: d8d5 9bbd 7357 31bd c103 53bd 3255 b1bd
000003b0: badc c3bd 6a65 47bd d71f 863d 8861 6ebd
000003c0: 3af8 fdbd f7e7 863d 097e 5dbd b5bf d53d
000003d0: 7fa5 09be b282 24bd ecba 88bd d7d9 383d
000003e0: 4a5b 00be 075b b03c 04ff 483d e5d6 523d
000003f0: 129d 4ebd 13c5 9fbd 1d75 093e b9bb c4bd

resource_embed.0.bias f4 [16]
0.042485084 -0.12926728 0.083355084 -0.064383015 -0.07149234 0.05885376 0.051510077 0.015475347
-0.13189456 -0.064486265 -0.017611196 0.10895035 -0.035485864 0.008124224 -0.04606409 -0.11891186
00000000: d704 2e3d a45e 04be 12b6 aa3d 3edb 83bd
00000010: 936a 92bd a410 713d 3bfc 523d 4f8c 7d3c
00000020: 5e0f 07be 6011 84bd 5b45 90bc 5c21 df3d
00000030: a059 11bd 771b 053c b3ad 3cbd 1088 f3bd

resource_embed.2.weight f4 [16, 16]
-0.2300136 0.09438315 -0.0892732 0.024791388 -0.0710756 -0.21261027 0.06678555 -0.045294948
-0.22139187 -0.13809809 -0.10337328 0.10479465 -0.22018456 0.18724264 0.21479477 0.23028304
-0.21030588 -0.13770579 0.021308703 -0.102132194 0.14664587 -0.11647126 0.08627823 -0.2426914
0.010969342 0.22556768 0.110460274 0.056997065 -0.147474 -0.19515415 0.089428686 -0.10346194
-0.1274806 0.12202995 -0.022786263 0.18076277 -0.13680448 -0.0782878 -0.03891299 0.23098694
-0.16117813 -0.1811938 -0.23943907 0.061143715 -0.03923183 -0.13090837 0.060178857 -0.19908595
0.06902494 -0.18053319 -0.188917 -0.0069995914 0.021854835 0.014489292 0.21725813 -0.18887372
-0.1205455 -0.20856063 -0.051952932 -0.021931978 0.015957307 -0.2063982 0.22585246 0.031709258
0.10774362 0.2045947 0.19416213 0.03558644 -0.12404307 0.030638859 -0.21803698 0.1862334
0.05835766 -0.029669106 0.038427144 0.06586502 0.17872047 0.16606854 0.028301831 0.032422435
-0.16183528 0.21609673 -0.19683003 0.09921747 0.029247073 0.078010485 -0.09553092 -0.18722041
0.047016036 -0.020130077 0.017339325 -0.18954468 0.06349976 0.22676104 -0.13269301 -0.040444292
-0.11716988 0.104049765 -0.05258675 -0.24749428 -0.060949065 -0.23037314 0.15290223 0.0564712
-0.027796635 0.20233802 -0.13059133 0.24671158 -0.08964823 0.23717631 0.07717806 0.001962949
0.18003114 -0.010639414 0.05593427 0.061336275 0.063400686 0.14604059 0.14666958 0.16267222
0.10419054 -0.17076826 0.048298504 -0.045637768 0.10956475 0.24564624 0.16908625 -0.22974265
0.10543874 -0.2420581 -0.23148844 0.017085578 0.08140521 0.11988073 -0.2273264 0.03407969
0.106002614 0.14328818 -0.028247554 -0.13982633 0.24171926 0.06782285 0.077660635 -0.085098036
0.20096944 0.23619121 -0.24048525 0.21491072 0.1617048 0.19252488 -0.22798406 0.11824592
-0.07115362 -0.1633496 -0.14883251 0.13955532 -0.1142868 -0.14072706 -0.168651 0.063221104
-0.18181969 0.1571025 -0.0051376973 -0.19047971 -0.23075518 0.0192345 -0.029734865 0.011682968
0.1886885 0.14561704 -0.18896611 -0.21472874 0.20933734 -0.058962565 0.11112057 -0.1423683
0.14688534 0.12112495 -0.05681274 -0.20920229 0.19563438 0.0069874143 -0.09148795 0.1469615
-0.22001036 -0.053522225 0.056767706 -0.09751202 0.09173317 0.12712622 -0.122912355 -0.13459276
-0.03349532 -0.0360721 0.21164337 -0.23285712 -0.029471617 -0.08586322 0.24440755 0.0588927
0.08715341 -0.120474264 0.09054701 -0.21848021 0.055811945 -0.24731192 -0.047565166 -0.24286953
-0.031986542 0.08914213 0.015833193 0.009813518 -0.08685735 0.016402114 -0.11832508 -0.078159384
0.041198075 -0.14932896 0.14912528 -0.2004397 -0.054877 -0.117119856 -0.20686845 0.15180169
0.014839354 -0.24763532 0.042517822 -0.20703126 0.17638107 0.12276939 0.22654894 0.043668434
0.24788976 -0.19962142 -0.05472861 -0.159434 0.13906114 0.24455374 0.1561094 0.08941737
0.016508821 0.20949094 -0.20609999 -0.114470415 0.25093028 0.03626315 -0.069658555 0.24774024
0.14568353 -0.059139308 -0.066601574 0.0057333787 -0.013599272 -0.0512251 0.006549093 -0.23171906
00000000: af88 6bbe f44b c13d ded4 b6bd 4f17 cb3c
00000010: 1690 91bd 82b6 59be ddc6 883d 3287 39bd
00000020: 8db4 62be 9669 0dbe 5fb5 d3bd 949e d63d
00000030: 1078 61be 89bc 3f3e 29f3 5b3e 51cf 6b3e
00000040: 6d5a 57be bf02 0dbe 978f ae3c af2a d1bd
00000050: 562a 163e 7c88 eebd a4b2 b03d 1884 78be
00000060: c1b8 333c 37fb 663e ff38 e23d c175 693d
00000070: 6d03 17be 7dd6 47be 6326 b73d dbe3 d3bd
00000080: 468a 02be d7ea f93d 42aa babc e019 393e
00000090: 7916 0cbe 5b55 a0bd 3a63 1fbd d787 6c3e
000000a0: e10b 25be de8a 39be 842f 75be d571 7a3d
000000b0: 8eb1 20bd d80c 06be 1b7e 763d 30dd 4bbe
000000c0: f35c 8d3d b1dd 38be 7573 41be d45c e5bb
000000d0: e908 b33c 7f64 6d3c ea78 5e3e 1d68 41be
000000e0: 8fe0 f6bd eb90 55be 99cc 54bd b1aa b3bc
000000f0: e6b8 823c 0d5a 53be de45 673e 91e1 013d
00000100: b0a8 dc3d 4681 513e 70d2 463e 16c3 113d
00000110: 4b0a febd 58fe fa3c 1645 5fbe f8b3 3e3e
00000120: 7108 6f3d a00c f3bc c865 1d3d 3de4 863d
00000130: 8002 373e df0d 2a3e 3ed9 e73c 63cd 043d
00000140: 26b8 25be 7648 5d3e d08d 49be 8732 cb3d
00000150: 8f97 ef3c f6c3 9f3d b7a5 c3bd b5b6 3fbe
00000160: e393 403d d5e7 a4bc 330b 8e3c 0018 42be
00000170: 2a0c 823d 0c34 683e ade0 07be eaa8 25bd
00000180: c3f6 efbd 0b18 d53d 3465 57bd 246f 7dbe
00000190: baa5 79bd f0e6 6bbe 6792 1c3e 584e 673d
000001a0: c5b5 e3bc b331 4f3e bcb9 05be f6a1 7c3e
000001b0: 7e99 b7bd 59de 723e 880f 9e3d d2a4 003b
000001c0: 155a 383e f050 2ebc 551b 653d bf3b 7b3d
000001d0: 38d8 813d aa8b 153e 8d30 163e 8c93 263e
000001e0: da61 d53d e0dd 2ebe a7d4 453d abee 3abd
000001f0: 7c63 e03d b08a 7b3e f224 2d3e a841 6bbe
00000200: 44f0 d73d 14de 77be 4e0b 6dbe 0ef7 8b3c
00000210: c6b7 a63d 0784 f53d 40c8 68be 2597 0b3d
00000220: e617 d93d 23ba 123e 6a67 e7bc a22e 0fbe
00000230: 4185 773e b5e6 8a3d 8a0c 9f3d e147 aebd
00000240: efca 4d3e 1cdc 713e c441 76be 8e11 5c3e
00000250: f195 253e 3e25 453e a774 69be eb2a f23d
00000260: fdb8 91bd 1e45 27be 8d67 18be 97e7 0e3e
00000270: 330f eabd c11a 10be d9b2 2cbe 117a 813d
00000280: f12e 3abe 7adf 203e 215a a8bb 1d0d 43be
00000290: 164b 6cbe ac91 9d3c 8896 f3bc eb69 3f3c
000002a0: 8f37 413e a21c 153e 5580 41be dae1 5bbe
000002b0: 875c 563e bb82 71bd 2e93 e33d ffc8 11be
000002c0: 1c69 163e 5c10 f83d 7ab4 68bd 2039 56be
000002d0: 6154 483e aef6 e43b 095e bbbd 137d 163e
000002e0: 654a 61be 1f3a 5bbd 4185 683d 62b4 c7bd
000002f0: 9ade bb3d 602d 023e 79b9 fbbd afd2 09be
00000300: 6332 09bd 57c0 13bd 0ab9 583e 1972 6ebe
00000310: 766e f1bc 0ed9 afbd f945 7a3e 7939 713d
00000320: 7d7d b23d 36bb f6bd b670 b93d 47b9 5fbe
00000330: 119b 643d 563f 7dbe b1d3 42bd cab2 78be
00000340: 5204 03bd 2690 b63d 9db4 813c e1c8 203c
00000350: 44e2 b1bd ba5d 863c 6b54 f2bd 0712 a0bd
00000360: 50bf 283d b1e9 18be 4cb4 183e 1140 4dbe
00000370: b5c6 60bd 89dc efbd 53d5 53be e771 1b3e
00000380: c320 733c 1d94 7dbe 2b27 2e3d 0100 54be
00000390: 3d9d 343e 856e fb3d 72fc 673e acdd 323d
000003a0: d0d6 7d3e 8f69 4cbe 1b2b 60bd ab42 23be
000003b0: 0b66 0e3e 4c6c 7a3e 24db 1f3e 7420 b73d
000003c0: 823d 873c cb84 563e e00b 53be 776f eabd
000003d0: ef79 803e ab88 143d 25a9 8ebd 9eaf 7d3e
000003e0: 102e 153e 0f3c 72bd 6866 88bd 11df bb3b
000003f0: 7bcf 5ebc 69d1 51bd c699 d63b c347 6dbe

resource_embed.2.bias f4 [16]
-0.06289061 0.20599449 -9.851289e-05 -0.0006600899 -0.08745665 0.03367227 -0.1371918 -0.10089468
-0.08570552 0.05379905 0.189818 0.10477864 0.15118387 0.093018055 0.13788874 -0.11231953
00000000: cbcc 80bd 38f0 523e b598 ceb8 e209 2dba
00000010: 791c b3bd efeb 093d 027c 0cbe dfa1 cebd
00000020: 6086 afbd 655c 5c3d a65f 423e 2f96 d63d
00000030: f2cf 1a3e 4080 be3d b532 0d3e c807 e6bd

combined_fc.weight f4 [32, 48]
0.03676054 -0.049132332 0.0037388073 0.07840653 -0.0077034966 0.07625097 0.085420966 0.04532349
-0.10284485 -0.11097354 -0.13843767 -0.084922984 -0.0295864 0.024705356 -0.09355764 -0.09057316
0.119383655 0.0016366054 0.016827065 0.0030791275 0.13592288 0.0633849 -0.010576327 -0.08956774
-0.010150907 -0.11944766 0.08183191 0.060294624 0.13494396 -0.040175207 -0.12623303 0.013093098
-0.12652291 0.02794021 -0.13275741 0.04042114 -0.054605413 -0.03415045 0.1299346 0.08039643
-0.011869024 0.013577338 -0.083492294 -0.10602969 -0.0037533692 -0.04954169 -0.024235535 0.14446151
-0.11884902 0.111376345 0.024009071 0.050618935 -0.047735296 0.07075954 0.12938325 0.02871077
0.046670083 -0.13779962 -0.018390408 0.086774506 0.07522547 -0.13429257 0.0012654831 -0.04609163
-0.072663456 -0.046065565 -0.06315476 -0.12631217 0.024953404 0.13602275 -0.054102097 0.07525124
0.04211407 -0.12649922 0.012515034 0.101809375 0.0794353 -0.04615155 -0.018389711 0.038762607
0.02864216 -0.10989174 0.07584825 0.017281622 0.048295014 -0.13490218 0.026521223 0.045324627
-0.11370585 0.13939025 0.12865618 -0.0224786 -0.11120363 -0.041146252 -0.010146832 -0.09087808
0.113363214 -0.06297624 0.11794933 -0.04090145 0.069936454 0.135877 -0.03443976 -0.009828689
0.07801632 -0.017902294 0.02404736 -0.12420716 0.07121004 -0.00206534 -0.0025325378 0.1299331
0.11783267 0.051056013 0.098117955 -0.03743973 -0.08733204 0.04803558 0.06371029 -0.06155327
0.028840156 0.006620714 0.13980915 0.12310976 -0.10448993 -0.01571684 -0.0117030265 0.04139958
-0.05919304 -0.005454302 0.03529773 0.030266844 -0.06771816 -0.11191477 -0.04322926 0.051875513
0.09229905 -0.1093022 -0.06619928 0.12793334 -0.045641124 0.02660544 0.1006906 0.020374736
0.095914185 0.1389526 -0.05583594 -0.10626036 -0.13433066 -0.097481735 -0.07578659 -0.110268556
0.075827084 0.06042078 0.040458027 -0.112542026 0.0059074988 0.13137135 0.027093578 0.13929681
0.0034697773 0.025361156 0.016543219 -0.059971876 -0.054240875 0.07750312 -0.021140397 -0.061812736
0.096607745 -0.05367097 0.04690397 0.009110193 0.0028608236 0.016223826 -0.1118124 -0.044366736
0.108814165 0.0993957 0.1053941 0.08648637 0.04353373 0.018099181 -0.036008783 0.1412437
0.031140905 -0.091040365 -0.034945004 -0.003094388 0.08454402 0.02288747 0.006580787 0.02185118
0.03687092 -0.01343348 0.070438676 -0.05630708 -0.13481885 0.03398659 -0.054765817 0.06548215
-0.0071574333 0.00433634 0.041700527 0.11968709 0.06788482 0.071131825 -0.13910481 0.102172956
-0.117905036 0.07578066 -0.06207427 0.048405364 0.052375168 -0.07109215 -0.08027949 0.038994975
0.13146155 -0.08123064 0.11604943 -0.113674775 -0.08999796 0.14098553 -0.055867758 -0.13866943
0.11125109 -0.06749759 0.00087845646 0.023621708 -0.094453186 -0.0054407455 -0.019571817 0.06770654
-0.103228904 -0.020024154 -0.011780601 -0.060252026 -0.10173623 -0.101799 0.115347035 -0.057471763
-0.09851954 -0.08454826 -0.029052863 -0.009664203 -0.014531502 0.011861537 0.072891675 -0.009628702
0.13466343 0.12119234 0.039363388 -0.05087065 -0.08899245 -0.088707514 0.11345902 -0.014246473
00000000: 3892 163d fc3e 49bd c706 753b 9a93 a03d
00000010: 9d6d fcbb 7829 9c3d 30f1 ae3d 20a5 393d
00000020: 52a0 d2bd 1846 e3bd 9bc2 0dbe 1aec adbd
00000030: 2e5f f2bc e362 ca3c 269b bfbd 6c7e b9bd
00000040: 6b7f f43d 5d83 d63a ead8 893c 30cb 493b
00000050: 5e2f 0b3e f1cf 813d 5548 2dbc 4b6f b7bd
00000060: fd4f 26bc faa0 f4bd 7d97 a73d 7ff7 763d
00000070: c02e 0a3e c28e 24bd 3b43 01be 6f84 563c
00000080: 398f 01be dee2 e43c 8ff1 07be a390 253d
00000090: eda9 5fbd 58e1 0bbd 930d 053e e2a6 a43d
000000a0: 4b76 42bc 7c73 5e3c 02fe aabd 1826 d9bd
000000b0: 16fb 75bb 3aec 4abd 9a89 c6bc b8ed 133e
000000c0: 1d67 f3bd 4819 e43d acae c43c cd55 4f3d
000000d0: 1686 43bd 61ea 903d 0b7d 043e d932 eb3c
000000e0: 2129 3f3d 581b 0dbe 7ba7 96bc d5b6 b13d
000000f0: d00f 9a3d fe83 09be 91de a53a 94ca 3cbd
00000100: 94d0 94bd 3faf 3cbd 4857 81bd fa57 01be
00000110: 156b cc3c 8c49 0b3e 299a 5dbd 521d 9a3d
00000120: ce7f 2c3d 0389 01be db0b 4d3c 6f81 d03d
00000130: f9ae a23d 6809 3dbd 05a6 96bc 8ac5 1e3d
00000140: f7a2 ea3c ec0e e1bd 5456 9b3d 3092 8d3c
00000150: fed0 453d cc23 0abe 0943 d93c 51a6 393d
00000160: 9dde e8bd 51bc 0e3e 72be 033e 0a25 b8bc
00000170: bbbe e3bd f988 28bd e63e 26bc 491e babd
00000180: f92a e83d b0f9 80bd 6b8f f13d 4788 27bd
00000190: d83a 8f3d 5723 0b3e b510 0dbd 8208 21bc
000001a0: 05c7 9f3d d5a7 92bc f8fe c43c 5360 febd
000001b0: 92d6 913d a85a 07bb eff8 25bb 2f0d 053e
000001c0: 4152 f13d 1c20 513d 11f2 c83d 675a 19bd
000001d0: 24db b2bd f5c0 443d 8a7a 823d 481f 7cbd
000001e0: 3142 ec3c 93f2 d83b 212a 0f3e f820 fc3d
000001f0: d1fe d5bd 9ac0 80bc 0dbe 3fbc 9b92 293d
00000200: 6774 72bd 00ba b2bb 5a94 103d 2cf2 f73c
00000210: d2af 8abd 9233 e5bd 2a11 31bd 6b7b 543d
00000220: 4907 bd3d d5d9 dfbd 7d93 87bd f500 033e
00000230: 30f2 3abd a7f3 d93c e036 ce3d ebe8 a63c
00000240: a86e c43d 9749 0e3e 3ab4 64bd 089f d9bd
00000250: fa8d 09be 81a4 c7bd 0036 9bbd 7bd4 e1bd
00000260: 3b4b 9b3d c87b 773d 51b7 253d 6f7c e6bd
00000270: b193 c13b 3686 063e 5af3 dd3c d3a3 0e3e
00000280: 3465 633b 33c2 cf3c a585 873c 12a5 75bd
00000290: ae2b 5ebd f5b9 9e3d a02e adbc 5a2f 7dbd
000002a0: 48da c53d 17d6 5bbd 611e 403d eb42 153c
000002b0: a87c 3b3b d4e7 843c e6fd e4bd e5b9 35bd
000002c0: f6d9 de3d f98f cb3d ddd8 d73d c41f b13d
000002d0: 6d50 323d bc44 943c f27d 13bd 30a2 103e
000002e0: 361b ff3c 5f73 babd 7e22 0fbd 37cb 4abb
000002f0: 6a25 ad3d 817e bb3c a4a3 d73b 3f01 b33c
00000300: f605 173d 1918 5cbc 2742 903d 41a2 66bd
00000310: f40d 0abe 8635 0b3d 1f52 60bd 811b 863d
00000320: e788 eabb db17 8e3b 2cce 2a3d 811e f53d
00000330: 3207 8b3d 90ad 913d 7e71 0ebe 0e40 d13d
00000340: 3278 f1bd e432 9b3d 9741 7ebd b444 463d
00000350: 5887 563d c398 91bd 9369 a4bd 32b9 1f3d
00000360: db9d 063e 405c a6bd 53ab ed3d 52ce e8bd
00000370: da50 b8bd 835e 103e 97d5 64bd 5cff 0dbe
00000380: 9dd7 e33d 2d3c 8abd 3748 663a 5082 c13c
00000390: ac70 c1bd 4848 b2bb 1355 a0bc baa9 8a3d
000003a0: ad69 d3bd b209 a4bc 6c03 41bc d4ca 76bd
000003b0: 165b d0bd fe7b d0bd 113b ec3d 8367 6bbd
000003c0: 9dc4 c9bd a327 adbd 4500 eebc 9b56 1ebc
000003d0: 8915 6ebc e456 423c 3b48 953d b4c1 1dbc
000003e0: 36e5 093e b133 f83d 813b 213d be5d 50bd
000003f0: ac41 b6bd 49ac b5bd 345d e83d 0a6a 69bc

combined_fc.bias f4 [32]
0.017773042 -0.020686317 -0.024897767 0.14493969 0.06732061 -0.02308986 -0.04057862 -0.09595899
-0.0072753155 0.11574773 0.114894435 -0.13334355 -0.03549561 -0.06813403 0.124344 -0.022222511
0.075535566 -0.0062773917 -0.091935754 -0.12172372 -0.09034045 -0.04235332 0.050755244 -0.010875712
0.029373808 0.100373395 0.03519243 0.112263754 -0.012747862 -0.14313304 -0.09231253 -0.13880682
00000000: c598 913c 5a76 a9bc 67f6 cbbc 126b 143e
00000010: 63df 893d f226 bdbc c435 26bd 2686 c4bd
00000020: c565 eebb 250d ed3d c64d eb3d 368b 08be
00000030: d863 11bd db89 8bbd 11a8 fe3d fc0b b6bc
00000040: 64b2 9a3d 94b2 cdbb d048 bcbd 494a f9bd
00000050: 6a04 b9bd ad7a 2dbd bbe4 4f3d 0b30 32bc
00000060: 57a1 f03c 9190 cd3d f025 103d 8aea e53d
00000070: 69dc 50bc 7891 12be 5a0e bdbd 6023 0ebe

attn.in_proj_weight f4 [96, 32]
0.063702606 0.07154956 -0.16071926 -0.12073173 -0.055836804 -0.098533005 -0.10161436 0.10416539
-0.0031791735 -0.18470635 0.045256175 -0.055574547 -0.18810771 0.03695683 0.10196111 -0.10446373
0.18367423 -0.02646528 -0.06660458 -0.01684355 -0.039849468 0.02151509 -0.0037756397 0.15185341
-0.13873684 -0.15985411 -0.03183447 -0.14690486 0.07275735 -0.083504654 0.17021503 0.17374088
-0.1023144 -0.18470018 -0.038597085 -0.072481535 0.13653235 -0.13518147 -0.12981668 0.068891674
0.10737478 -0.18783015 -0.12070746 -0.030119201 -0.17578563 -0.17616853 -0.11176236 -0.16742001
0.034797374 -0.14342059 0.17784767 0.10496942 -0.034079973 -0.15497804 0.04468958 -0.1766466
0.13363431 0.0292214 -0.0057989405 -0.021285562 -0.13948083 0.009659273 -0.18460663 -0.046930544
0.006808806 -0.061778612 -0.2032665 -0.0139001915 -0.15821841 0.060307857 0.065870665 0.108675696
0.010848448 0.13224657 0.03878231 0.032243665 -0.18548137 0.11013972 0.037683856 0.12163653
0.02831234 0.12796229 0.02325806 -0.1659939 -0.1711412 -0.12756929 -0.01804847 -0.1598556
0.20275943 -0.14218612 -0.06648275 -0.046277426 -0.0070930305 -0.13505405 0.1309728 -0.035114937
-0.18815258 -0.063319005 0.16662541 0.16330148 0.18897909 0.13070151 0.18980783 0.0981032
0.076595195 0.08427497 0.007831144 0.13948104 -0.05257743 -0.008904112 -0.1216827 0.02805389
-0.11303072 -0.18979158 0.0031178573 -0.0052399365 0.008179984 -0.03796743 0.1560207 0.08913858
-0.16700977 -0.05517771 -0.1390815 -0.19267403 0.16152477 0.08869734 0.1545456 0.08369427
0.1356005 -0.11687742 -0.10726922 0.06995726 0.00812347 0.10083143 0.09589395 -0.15607941
-0.20146517 -0.10595512 0.09598505 -0.022130204 0.12873383 -0.029071271 0.110871695 -0.18790925
0.13051718 0.06624989 0.17726028 0.043558765 -0.12595911 -0.14431998 0.12440046 -0.045169648
-0.085304976 -0.058847863 0.0073641143 -0.046312034 0.03763261 0.026794288 -0.13249388 -0.1443489
0.012239461 0.14659846 -0.13392895 0.07441043 0.1585826 0.118188545 0.10309108 -0.11608865
-0.0048651528 0.00708683 0.20514865 0.06998422 -0.191697 -0.072719716 -0.0053951265 0.14583181
-0.044000976 -0.10219389 0.074783266 -0.08374486 -0.20037046 0.020842986 -0.06511345 0.107676506
0.03779186 -0.15899818 0.04694158 -0.20975432 -0.12544453 -0.0073370924 0.067939386 0.04722815
-0.19271913 0.05283602 -0.09352145 -0.064791195 0.14753537 -0.14641678 -0.08037335 -0.20935944
0.14604296 0.10863279 -0.008359155 -0.17420584 0.10986961 -0.16129827 -0.20885429 -0.0900512
0.05069117 -0.18418007 -0.12528561 -0.030361624 0.20898494 -0.0917626 0.14517708 -0.18195638
0.20965298 -0.17818664 -0.042432286 -0.1836603 -0.21811527 0.012421053 0.19511384 0.05748809
-0.14449759 0.04268599 -0.050389677 0.10938865 0.16954838 0.20579356 -0.00041313653 0.008182638
0.0090949265 0.093172334 0.024096189 0.15861614 -0.20554051 -0.12621666 -0.18687567 0.13199857
0.09382463 -0.057899207 0.081711754 -0.061265096 -0.16180694 0.045397524 0.20043609 -0.20703216
0.119802885 0.20893599 0.08231051 0.20654802 -0.029544095 -0.007742829 -0.05004917 -0.009996164
00000000: 8376 823d 9388 923d 9793 24be 3242 f7bd
00000010: 22b5 64bd accb c9bd 311b d0bd aa54 d53d
00000020: ae59 50bb a923 3dbe 8a5e 393d 23a2 63bd
00000030: 4f9f 40be 0c60 173d fdd0 d03d 14f1 d5bd
00000040: 1915 3c3e b7cd d8bc fb67 88bd 7cfb 89bc
00000050: 3239 23bd 6a40 b03c b970 77bb 767f 1b3e
00000060: 0811 0ebe ccb0 23be dc64 02bd 3a6e 16be
00000070: ce01 953d 7d04 abbd d94c 2e3e 21e9 313e
00000080: 368a d1bd 0b22 3dbe fa17 1ebd 3371 94bd
00000090: 23cf 0b3e 036d 0abe aaee 04be 1417 8d3d
000000a0: 4fe7 db3d 8c56 40be 7935 f7bd 8bbc f6bc
000000b0: 2601 34be 8665 34be aae3 e4bd 2770 2bbe
000000c0: b187 0e3d d9dc 12be b31d 363e 35fa d63d
000000d0: 7197 0bbd 90b2 1ebe 6c0c 373d d9e2 34be
000000e0: 6fd7 083e b861 ef3c 0a05 bebb 0f5f aebc
000000f0: 10d4 0ebe ed41 1e3c 8509 3dbe 3e3a 40bd
00000100: 681c df3b 920b 7dbd 1825 50be a1bd 63bc
00000110: 0204 22be 5f05 773d 33e7 863d 5d91 de3d
00000120: b0bd 313c a56b 073e 33da 1e3d ef11 043d
00000130: d4ee 3dbe ef90 e13d 635a 1a3d 931c f93d
00000140: 48ef e73c 8c08 033e b087 be3c 4efa 29be
00000150: a43f 2fbe 86a1 02be 63da 93bc 30b1 23be
00000160: 2ba0 4f3e 3d99 11be 1c28 88bd 668d 3dbd
00000170: a76c e8bb 9c4b 0abe bc1d 063e aed4 0fbd
00000180: 12ab 40be 65ad 81bd da9f 2a3e 8138 273e
00000190: bc83 413e 9ed6 053e fc5c 423e 55ea c83d
000001a0: f1dd 9c3d 5b98 ac3d 334e 003c 1ed4 0e3e
000001b0: 6e5b 57bd 8de2 11bc c834 f9bd 46d1 e53c
000001c0: a67c e7bd b958 42be f754 4c3b c6b3 abbb
000001d0: 5705 063c bc83 1bbd e4c3 1f3e 4a8e b63d
000001e0: 9c04 2bbe 0602 62bd 616b 0ebe 574c 45be
000001f0: c066 253e f3a6 b53d 3441 1e3e e767 ab3d
00000200: dcda 0a3e 6e5d efbd f7af dbbd c045 8f3d
00000210: 4d18 053c b580 ce3d 0c64 c43d 48d3 1fbe
00000220: e34c 4ebe fffe d8bd cf93 c43d 674a b5bc
00000230: cdd2 033e e026 eebc b310 e33d 486b 40be
00000240: 4ca6 053e 06ae 873d b883 353e ad6a 323d
00000250: 6dfb 00be 9ec8 13be abc5 fe3d cf03 39bd
00000260: 60b4 aebd 750a 71bd ab4e f13b b0b1 3dbd
00000270: a724 1a3d b27f db3c 7aac 07be 33d0 13be
00000280: 0588 483c e81d 163e ac24 09be 7f64 983d
00000290: 7a63 223e d60c f23d 6b21 d33d e3bf edbd
000002a0: dc6b 9fbb a438 e83b 7d12 523e e353 8f3d
000002b0: 384c 44be 13ee 94bd 9ac9 b0bb ef54 153e
000002c0: 5e3a 34bd 084b d1bd f827 993d 6d82 abbd
000002d0: ea2d 4dbe e9be aa3c 335a 85bd 8085 dc3d
000002e0: a3cb 1a3d 6bd0 22be d045 403d d6c9 56be
000002f0: 8874 00be fe6b f0bb ce23 8b3d 4e72 413d
00000300: 2a58 45be 956a 583d 2d88 bfbd 3fb1 84bd
00000310: 8313 173e 48ee 15be c89a a4bd 5262 56be
00000320: 498c 153e de7a de3d d6f4 08bc 0463 32be
00000330: 5103 e13d 602b 25be e6dd 55be c36c b8bd
00000340: 8ba1 4f3d b399 3cbe df4a 00be f1b8 f8bc
00000350: 2600 563e 08ee bbbd 4da9 143e c652 3abe
00000360: 45af 563e 8f76 36be 7acd 2dbd 7211 3cbe
00000370: 9c59 5fbe ac81 4b3c eccb 473e a278 6b3d
00000380: 2df7 13be 81d7 2e3d 6865 4ebd 2807 e03d
00000390: 179e 2d3e 8cbb 523e 3f9a d8b9 7910 063c
000003a0: e302 153c 23d1 be3d 5f65 c53c 456c 223e
000003b0: 3679 52be f13e 01be 565c 3fbe a22a 073e
000003c0: 2127 c03d b827 6dbd 7e58 a73d 1cf1 7abd
000003d0: b8b0 25be c1f2 393d 1e3f 4d3e 3d00 54be
000003e0: 375b f53d 51f3 553e 6a92 a83d 5381 533e
000003f0: 7506 f2bc 8fb7 fdbb 5c00 4dbd f3c6 23bc

attn.in_proj_bias f4 [96]
-0.0012953939 0.0016836395 0.0015474255 0.0017285439 0.0016162053 0.0021383746 0.0015617126 0.0013980264
-0.0027620904 -0.0024406458 -0.000566387 -0.0027448367 -0.0046858992 -0.0044761472 0.0015447964 -0.0047559342
0.0041959207 0.004447276 0.0046219076 0.0042266133 -0.00096504926 0.00048567067 -0.0009145102 0.0005154454
0.0029663455 0.0028936646 0.0033870488 0.003105597 -0.005155422 0.004633455 -0.005045126 -0.004464943
0.0004491695 0.00014400682 0.00027701954 -0.00021160714 0.000107877684 9.873071e-05 8.023514e-05 0.0002145007
-0.0004920637 -2.3684083e-06 -0.00030426864 1.8493582e-05 -0.0003128558 0.0002471251 -0.00029114704 -0.00026665817
0.00013986991 -8.521317e-05 -0.00019918632 0.00037267478 0.00023432182 -8.0250655e-05 -1.0618747e-05 -0.00021333537
4.176328e-05 -6.6060616e-06 9.6176744e-05 0.00020676387 -0.00012331016 0.00030013328 0.00017000611 -0.0009347801
0.0006309963 0.0017225873 0.00067863654 -0.0015665137 -0.0037795608 0.0019295433 0.00030255463 -0.00046511742
0.0003197936 -0.0019014425 0.0017932935 -0.00087523425 0.0017125198 0.00070162694 -7.673807e-05 0.0001450027
-0.0006649226 -0.0032927396 -0.0002759242 -0.0008943763 -0.0034705105 0.0011518273 0.00037614148 -0.00054172525
-0.0017173355 0.0011940933 -0.0022328566 -0.0021203854 -6.493037e-05 3.546224e-05 0.0010821588 -0.0013266976
00000000: 35ca a9ba 91ad dc3a fcd2 ca3a 4f90 e23a
00000010: dad6 d33a f923 0c3b 61b2 cc3a fb3d b73a
00000020: 3004 35bb 3ef3 1fbb 9779 14ba b8e2 33bb
00000030: 2c8c 99bb a5ac 92bb c47a ca3a abd7 9bbb
00000040: ef7d 893b 74ba 913b 5f73 973b 677f 8a3b
00000050: 5cfb 7cba 9da1 fe39 bebb 6fba f51e 073a
00000060: 0567 423b a3a3 3d3b 40f9 5d3b 4687 4b3b
00000070: d0ee a8bb 3dd4 973b 9651 a5bb a84e 92bb
00000080: 837e eb39 8900 1739 ef3c 9139 dce2 5db9
00000090: 643c e238 a50d cf38 ea43 a838 98eb 6039
000000a0: d6fd 00ba f2f0 1eb6 3f86 9fb9 aa22 9b37
000000b0: cb06 a4b9 9290 8139 18a5 98b9 41ce 8bb9
000000c0: 0baa 1239 79b4 b2b8 acdc 50b9 9063 c339
000000d0: 49b4 7539 3e4c a8b8 2c27 32b7 c7b2 5fb9
000000e0: fb2a 2f38 a3a9 ddb6 7fb2 c938 c1ce 5839
000000f0: d24c 01b9 355b 9d39 ab43 3239 080c 75ba
00000100: 7269 253a 70c8 e13a 87e6 313a 7a53 cdba
00000110: 82b2 77bb bbe8 fc3a 32a0 9e39 01db f3b9
00000120: f8a9 a739 d339 f9ba f20c eb3a fa6f 65ba
00000130: a176 e03a 63ed 373a 70ee a0b8 de0b 1839
00000140: 334e 2eba 01cb 57bb eba9 90b9 9474 6aba
00000150: 8171 63bb e9f8 963a db34 c539 9102 0eba
00000160: 3818 e1ba 1f83 9c3a 1e55 12bb 2af6 0abb
00000170: 3a2b 88b8 4abd 1438 39d7 8d3a 96e4 adba

attn.out_proj.weight f4 [32, 32]
-0.10664695 -0.09294743 -0.13698639 0.03417908 -0.083033785 -0.014766655 0.06848575 0.12836929
-0.050453655 0.13299336 0.15289828 0.15454891 -0.09867115 0.096152045 0.04871187 -0.036866147
-0.1712027 0.1038655 -0.07818732 0.07520814 0.099176645 -0.12872496 0.11237393 0.15687926
0.016951766 -0.08006603 -0.15234841 0.16217156 -0.12326327 0.13560216 0.03871735 -0.098924965
-0.13885367 -0.019510062 -0.04491634 0.00135698 -0.11267486 -0.1044796 -0.042529367 -0.027570603
-0.10790431 -0.15833415 -0.076966405 0.10621484 -0.029362064 -0.033823308 -0.15596548 0.074321166
0.16694634 -0.11301261 0.13114113 -0.09036429 -0.14574294 0.028093826 0.0057439744 -0.036730383
-0.07128764 -0.012808786 -0.032521307 0.016254956 0.0647686 -0.02901502 0.15570651 -0.08313762
-0.09486645 0.018888146 -0.15407291 0.12884605 -0.09615546 -0.045411024 -0.0852634 0.054237787
0.062146153 0.0805096 0.102851324 -0.030691683 0.06880687 0.13295625 -0.09241097 -0.16455781
-0.14928076 -0.1443246 0.064701594 0.11562628 0.05162821 -0.036367144 -0.09413271 -0.08232611
-0.049315218 0.116742074 0.14886384 0.083332166 -0.16455378 -0.07308203 0.053639412 0.090814255
0.05311254 -0.096192226 -0.16780709 -0.14772211 0.08508236 0.11312188 -0.017352138 -0.09194963
0.07419735 0.10057522 -0.1035818 0.16118796 -0.16773212 -0.008400965 -0.01771375 -0.029186262
0.1731342 0.06683279 -0.11024978 0.16622658 -0.10040751 0.08297946 0.14222628 -0.020382836
-0.034770705 -0.03893918 -0.054152265 0.09459728 0.17447715 -0.017631048 -0.07919811 0.13651527
-0.034408003 -0.16347992 -0.061412614 0.030802539 0.0037477082 -0.08560479 0.11088309 0.0065882253
0.11029175 0.16217227 0.17069703 -0.1088793 -0.13673867 0.10627078 -0.124723114 -0.13895233
-0.15246704 0.110848404 -0.039018188 0.0042162603 0.15138121 -0.041490104 0.09008217 -0.11799126
0.078764334 -0.012607123 -0.1135337 0.07583154 -0.116948694 -0.08873704 -0.08718746 0.05447226
-0.012653968 0.045551047 0.09254581 -0.067120336 0.092096485 -0.037751943 -0.04832636 -0.101191156
0.018150676 0.05642073 0.0048900046 0.12938902 0.13946822 -0.07989165 -0.15500078 0.11694216
-0.07736381 0.07930863 0.09113807 -0.082758635 -0.1100698 0.014281099 0.14482021 0.17749478
0.15566592 0.009165589 -0.10555531 -0.14939459 -0.056184568 0.0002525045 -0.15621154 -0.11622837
0.018992536 0.07587053 0.04178724 -0.1548109 0.15910427 0.06754932 -0.14216505 0.03968474
-0.12478603 0.056032557 -0.009129252 -0.13574804 0.11520822 -0.09528517 0.16563018 0.14371412
-0.07467015 0.1717293 -0.0034162286 -0.0005605106 -0.0016677416 -0.120821096 0.060101442 0.009414158
0.04694656 0.111396074 0.09747033 -0.08472318 0.11557359 -0.13188249 -0.10140282 -0.07698474
0.11415976 0.08733665 -0.15708736 -0.1592573 -0.006190801 -0.12566613 0.1629376 -0.13520224
0.1695997 -0.09519971 0.10452066 0.14162977 -0.032553565 -0.16186088 -0.17448813 -0.10081999
-0.10968113 0.15378056 -0.099525295 -0.102237664 9.464925e-05 0.16797408 0.07495762 -0.15963723
0.12423111 -0.118616 0.094349764 0.17038827 -0.026508087 0.025081752 0.039052434 -0.08790292
00000000: b769 dabd 395b bebd 2946 0cbe 5dff 0b3d
00000010: 9e0d aabd d7ef 71bc 4242 8c3d 3d73 033e
00000020: 7ea8 4ebd 692f 083e 5e91 1c3e 1242 1e3e
00000030: 1a14 cabd 5deb c43d 1986 473d f500 17bd
00000040: c34f 2fbe 6fb7 d43d ac20 a0bd ba06 9a3d
00000050: 201d cb3d 7ad0 03be 4e24 e63d f5a4 203e
00000060: 6ede 8a3c a9f9 a3bd 3901 1cbe 4d10 263e
00000070: 7471 fcbd 4bdb 0a3e 1696 1e3d 2c99 cabd
00000080: a82f 0ebe 91d3 9fbc 32fa 37bd b1dc b13a
00000090: 14c2 e6bd 67f9 d5bd 4633 2ebd bfdb e1bc
000000a0: effc dcbd 5922 22be 90a0 9dbd 2b87 d93d
000000b0: b688 f0bc 4f8a 0abd 6ab5 1fbe b235 983d
000000c0: fbf3 2a3e 2873 e7bd dc49 063e ea10 b9bd
000000d0: a33d 15be 0625 e63c f337 bc3b 9972 16bd
000000e0: 41ff 91bd f1db 51bc 1035 05bd 1d29 853c
000000f0: 66a5 843d e8b0 edbc 8771 1f3e 0e44 aabd
00000100: 5749 c2bd 50bb 9a3c 4ac5 1dbe 38f0 033e
00000110: 27ed c4bd e900 3abd 949e aebd 7128 5e3d
00000120: f78c 7e3d 38e2 a43d b7a3 d23d 206d fbbc
00000130: 9eea 8c3d af25 083e f641 bdbd d881 28be
00000140: 0edd 18be d4c9 13be 4582 843d 79cd ec3d
00000150: 1a78 533d b7f5 14bd a6c8 c0bd 979a a8bd
00000160: c1fe 49bd 7816 ef3d c36f 183e 0eaa aa3d
00000170: c980 28be 08ac 95bd 00b5 5b3d d3fc b93d
00000180: 898c 593d 6e00 c5bd 9fd5 2bbe 7744 17be
00000190: a93f ae3d 72ac e73d 1226 8ebc 1650 bcbd
000001a0: c8f4 973d 62fa cd3d b222 d4bd 750e 253e
000001b0: f8c1 2bbe 33a4 09bc 6d1c 91bc 0718 efbc
000001c0: 174a 313e a1df 883d a3ca e1bd 4d37 2a3e
000001d0: 74a2 cdbd 23f1 a93d c4a3 113e e8f9 a6bc
000001e0: ba6b 0ebd b17e 1fbd c4ce 5dbd 38bc c13d
000001f0: 23aa 323e fd6e 90bc 9e32 a2bd a9ca 0b3e
00000200: 68ef 0cbd 4867 27be cb8b 7bbd 9b55 fc3c
00000210: 1c9c 753b 9051 afbd ac16 e33d 0ae2 d73b
00000220: a4e0 e13d 7d10 263e 34cb 2e3e 1cfc debd
00000230: 3905 0cbe 7fa4 d93d d56e ffbd 8549 0ebe
00000240: 5220 1cbe 7d04 e33d 89d1 1fbd 8e28 8a3b
00000250: ad03 1b3e 87f1 29bd 007d b83d 67a5 f1bd
00000260: 324f a13d 1b8e 4ebc 5b84 e8bd 914d 9b3d
00000270: cc82 efbd c4bb b5bd 578f b2bd 4e1e 5f3d
00000280: 9752 4fbc bc93 3a3d a888 bd3d 6376 89bd
00000290: 159d bc3d c8a1 1abd dcf1 45bd 4f3d cfbd
000002a0: bab0 943c 6c19 673d 553c a03b 8e7e 043e
000002b0: c2d0 0e3e 3c9e a3bd 86b8 1ebe 5f7f ef3d
000002c0: eb70 9ebd 906c a23d 99a6 ba3d 5c7d a9bd
000002d0: 466c e1bd 45fb 693c c04b 143e 31c1 353e
000002e0: e366 1f3e 442b 163c 622d d8bd e5fa 18be
000002f0: ca21 66bd 9562 8439 ebf5 1fbe 2409 eebd
00000300: 3c96 9b3c 0262 9b3d 1929 2b3d c086 1ebe
00000310: 3bec 223e 4c57 8a3d b793 11be 778c 223d
00000320: d18f ffbd 6582 653d dc92 15bc 8901 0bbe
00000330: 4af2 eb3d df24 c3bd f59a 293e cb29 133e
00000340: aaec 98bd ced9 2f3e cee2 5fbb 3bef 12ba
00000350: 1f98 daba 0d71 f7bd ee2c 763d d73d 1a3c
00000360: 094b 403d a023 e43d 869e c73d 5983 adbd
00000370: d9b1 ec3d 340c 07be 48ac cfbd 2daa 9dbd
00000380: 98cc e93d 8fdd b23d 82db 20be 5814 23be
00000390: 34dc cabb 9fae 00be 1dd9 263e 7572 0abe
000003a0: 8bab 2d3e 11f8 c2bd ee0e d63d 6507 113e
000003b0: e356 05bd dcbe 25be 04ad 32be b67a cebd
000003c0: 80a0 e0bd a778 1d3e ebd3 cbbd fb61 d1bd
000003d0: 6e7e c638 6601 2c3e 6183 993d f177 23be
000003e0: e16c fe3d f2ec f2bd 733a c13d 437a 2e3e
000003f0: 7d27 d9bc 3f78 cd3c 72f5 1f3d 7206 b4bd

attn.out_proj.bias f4 [32]
0.0002799594 0.0019230634 -0.0009371674 -0.00088084093 0.00056981563 -0.00015706138 -0.0013492123 0.00266256
-3.6354508e-05 0.0032504997 -0.0012041974 -0.003324379 -0.00030613306 -0.0041065863 -0.0006771673 0.0014412658
0.0011351831 0.000562643 0.0016259546 -0.00070571894 -0.0029633283 0.00030466763 0.0045452765 -0.0027352532
0.00035257317 -0.0011153147 0.0037985514 0.0009610414 0.0030953386 -0.002773693 -0.0005165323 -0.0019921358
00000000: 84c7 9239 4d0f fc3a 3dac 75ba 3ce8 66ba
00000010: ae5f 153a d8b0 24b9 0dd8 b0ba 587e 2e3b
00000020: 5b7b 18b8 5606 553b 29d6 9dba d3dd 59bb
00000030: 7c80 a0b9 8b90 86bb ee83 31ba dbe8 bc3a
00000040: 6dca 943a 557e 133a fc1d d53a ffff 38ba
00000050: 6634 42bb ccbb 9f39 8bf0 943b ef41 33bb
00000060: 92d9 b839 c02f 92ba 1ef1 783b 66ee 7b3a
00000070: 2adb 4a3b d9c6 35bb e567 07ba 7e8e 02bb

fc.0.weight f4 [32, 32]
0.09368913 0.16463819 -0.15857609 0.052428097 -0.17321089 -0.041536164 0.09589611 -0.12948848
-0.08122131 0.16734684 0.00270198 -0.052116714 -0.17544022 -0.15186056 -0.09554339 -0.041992147
0.14507164 -0.13716234 -0.010286635 -0.1347032 -0.046120085 0.11973054 0.019057533 -0.1270178
0.004266079 -0.037625104 -0.13163929 0.12609124 -0.04131143 -0.02843157 0.05815665 0.07391898
-0.14644949 0.109407105 -0.02255761 0.0013354928 0.17938593 -0.04001792 -0.10380839 -0.07938388
-0.07818744 -0.088886596 -0.16355956 -0.06221053 0.009757978 0.06643823 0.0044046785 0.05289511
-0.06806979 0.103200965 -0.14301777 0.1397807 -0.036365684 5.045506e-05 -0.082498446 0.083098024
-0.11316601 0.08994071 0.051211644 0.064561926 0.09020814 0.062517755 -0.022269962 -0.03932135
-0.17551163 -0.010056041 -0.11142044 0.1420873 0.14457409 0.013597759 0.08267211 -0.12812233
-0.13860337 0.11463294 0.02338021 0.018007355 -0.12434535 0.056291997 -0.17778055 0.1429331
0.15518425 -0.0922636 -0.115886845 -0.058852416 0.01902078 0.056115095 -0.08413303 -0.021368308
0.021428453 -0.07815449 -0.13105711 -0.12889324 -0.02192341 0.13466986 0.08043014 0.1441953
-0.04852482 0.14098959 0.017925294 -0.1390001 0.010468202 -0.10932764 0.038564824 -0.0084099565
-0.17922841 -0.026768304 0.10018666 -0.16334374 -0.03840615 -0.09453397 0.033917047 -0.13744289
-0.046413805 0.142509 -0.07219624 -0.072139874 0.042685814 0.13315967 0.11752633 0.03396637
0.04720352 -0.00025475104 0.16086781 -0.0026516663 0.045130957 0.13148499 -0.047485262 -0.02105857
0.025346342 0.089265324 0.14654072 -0.16978791 0.015742477 0.051148385 -0.10569986 0.14292556
-0.17676504 -0.069573455 0.079660654 -0.090184174 -0.1529766 0.098292984 -0.14033067 -0.012238833
0.029743074 -0.15899473 -0.12086341 0.11138375 -0.12585492 0.15569733 0.1047905 0.023589024
0.10879388 -0.097680844 -0.0929092 0.047486622 0.15662858 -0.024094624 0.12140801 -0.12554501
0.07221052 0.12744902 0.12937555 -0.0023291176 -0.116163656 -0.11651084 -0.13426617 -0.09269928
0.17709187 0.029126745 -0.031005207 -0.027837316 0.11018516 0.17791744 -0.10782931 -0.16411158
0.08611881 0.079996996 -0.16735803 0.03896895 0.06961446 -0.0014155318 0.11005906 -0.12580828
0.011785337 -0.09831702 0.049189154 -0.0636321 -0.010925199 -0.07096253 0.09558408 0.064234875
-0.14528985 0.12439985 -0.060278475 -0.014534775 -0.0008436142 0.05768726 -0.0110341525 -0.007151538
-0.027730871 0.028484046 -0.085674375 -0.09021194 -0.15968001 -0.029809844 -0.12138009 0.06471249
-0.17201152 -0.13201316 0.17803007 -0.057034712 0.014275598 0.10708463 -0.030816946 0.01617644
0.10518506 -0.041681223 -0.06073302 -0.10758772 0.035881616 0.094680674 -0.09064305 -0.053210385
0.1755713 0.015944544 0.04708767 -0.03933821 0.13002655 -0.11116792 -0.06732359 -0.10819663
0.1718884 -0.054295834 0.0475777 -0.077760294 0.074482 0.14948565 -0.082678355 -0.04137378
0.14874299 0.0028385608 0.077508524 -0.008790925 0.13782385 -0.010764233 0.0071551534 -0.03189727
-0.16505367 0.1687196 0.03236629 -0.159904 -0.1316753 0.13145806 -0.07774821 -0.042603716
00000000: 16e0 bf3d ea96 283e c561 22be d8be 563d
00000010: 325e 31be d321 2abd 2e65 c43d a198 04be
00000020: 5c57 a6bd f85c 2b3e b413 313b 5678 55bd
00000030: 9aa6 33be 5681 1bbe 41ac c3bd f5ff 2bbd
00000040: a98d 143e 4974 0cbe 4689 28bc a3ef 09be
00000050: 6ae8 3cbd 4935 f53d 8b1e 9c3c f410 02be
00000060: 77ca 8b3b c81c 1abd 73cc 06be 101e 013e
00000070: 2d36 29bd 53e9 e8bc ab35 6e3d d662 973d
00000080: dbf6 15be d510 e03d bdca b8bc b40b af3a
00000090: f2b0 373e d5e9 23bd 7e99 d4bd 0494 a2bd
000000a0: bd20 a0bd 2d0a b6bd 287c 27be 78d0 7ebd
000000b0: eddf 1f3c c410 883d 1f55 903b 8ba8 583d
000000c0: 2d68 8bbd 075b d33d 4073 12be ac22 0f3e
000000d0: 2ff4 14bd b59f 5338 f2f4 a8bd 4c2f aa3d
000000e0: 95c3 e7bd d632 b83d 4dc3 513d 0b39 843d
000000f0: 0cbf b83d 4f09 803d 7f6f b6bc 6d0f 21bd
00000100: 52b9 33be 18c2 24bc 6630 e4bd 557f 113e
00000110: 3b0b 143e 23c9 5e3c ff4f a93d 8032 03be
00000120: 0bee 0dbe adc4 ea3d db87 bf3c 2984 933c
00000130: c6a8 febd 7092 663d 1b0c 36be 0e5d 123e
00000140: 9fe8 1e3e b3f4 bcbd 1556 edbd 3b0f 71bd
00000150: 78d1 9b3c f1d8 653d f04d acbd 970c afbc
00000160: b98a af3c 760f a0bd d633 06be 97fc 03be
00000170: b998 b3bc e5e6 093e 8fb8 a43d efa7 133e
00000180: f6c1 46bd 935f 103e 11d8 923c 0b56 0ebe
00000190: d282 2b3c 2be7 dfbd 26f6 1d3d eac9 09bc
000001a0: a787 37be 3449 dbbc aa2e cd3d 9543 27be
000001b0: c44f 1dbd 079b c1bd 9aec 0a3d d4bd 0cbe
000001c0: 671c 3ebd e1ed 113e 9fdb 93bd 12be 93bd
000001d0: 52d7 2e3d 025b 083e a5b1 f03d 5220 0b3d
000001e0: 7a58 413d 1b90 85b9 88ba 243e 94c7 2dbb
000001f0: 3ddb 383d 00a4 063e e87f 42bd 0683 acbc
00000200: 22a3 cf3c bdd0 b63d c50e 163e e2dc 2dbe
00000210: 5ef6 803c f880 513d 2b79 d8bd 145b 123e
00000220: e501 35be 877c 8ebd 2025 a33d 7bb2 b8bd
00000230: e6a5 1cbe d54d c93d d8b2 0fbe 6385 48bc
00000240: bfa7 f33c 84cf 22be 3c87 f7bd 2a1d e43d
00000250: 1de0 00be 1f6f 1f3e 679c d63d c53d c13c
00000260: 53cf de3d e50c c8bd 2e47 bebd 5581 423d
00000270: 3e63 203e 1762 c5bc c3a4 f83d df8e 00be
00000280: 1ce3 933d ff81 023e 067b 043e 1ca4 18bb
00000290: 36e7 edbd 3c9d eebd 127d 09be 1fd9 bdbd
000002a0: 9257 353e 369b ee3c a2fe fdbc 150b e4bc
000002b0: c2a8 e13d fd2f 363e 9dd5 dcbd de0c 28be
000002c0: 0f5f b03d 77d5 a33d e75f 2bbe e89d 1f3d
000002d0: 0792 8e3d 5e89 b9ba a566 e13d e3d3 00be
000002e0: 4917 413c 6f5a c9bd 917a 493d 8c51 82bd
000002f0: 9bff 32bc ce54 91bd 96c1 c33d 938d 833d
00000300: ddc6 14be 59c5 fe3d 90e6 76bd 4423 6ebc
00000310: fe25 5dba 7a49 6c3d 97c8 34bc 7357 eabb
00000320: da2b e3bc 6057 e93c 0c76 afbd 0ac1 b8bd
00000330: 2883 23be c633 f4bc 2096 f8bd fb87 843d
00000340: ca23 30be 752e 07be 844d 363e 3b9d 69bd
00000350: 33e4 693c 304f db3d d273 fcbc 7484 843c
00000360: 446b d73d eeb9 2abd 30c3 78bd f356 dcbd
00000370: 9af8 123d f1e7 c13d 10a3 b9bd 22f3 59bd
00000380: f6c8 333e 229e 823c 00df 403d 1a21 21bd
00000390: ae25 053e 02ac e3bd f3e0 89bd 3296 ddbd
000003a0: 8303 303e 4f65 5ebd d6e0 423d ca40 9fbd
000003b0: 058a 983d c412 193e 4553 a9bd 8e77 29bd
000003c0: 1550 183e 2607 3a3b cabc 9e3d d007 10bc
000003d0: b221 0d3e 775c 30bc c775 ea3b b6a6 02bd
000003e0: d403 29be d5c4 2c3e 8492 043d e0bd 23be
000003f0: e4d5 06be f19c 063e 743a 9fbd 3c81 2ebd

fc.0.bias f4 [32]
-0.08753959 0.022686599 0.0037136124 -0.1760507 -0.14747605 0.14234415 -0.102944665 -0.058803804
-0.037258256 0.15674914 -0.11145614 0.16687977 -0.0996361 0.1248277 0.103985325 -0.14809918
0.07077758 -0.10363068 -0.09488911 -0.14770067 -0.057580408 0.13201973 0.04110052 -0.12160771
-0.11189909 -0.16896029 -0.0867918 -0.16212685 0.09197085 -0.053365115 -0.031580716 -0.062125023
00000000: f547 b3bd 3fd9 b93c 1460 733b a246 34be
00000010: f603 17be aac2 113e a7d4 d2bd 42dc 70bd
00000020: 1d9c 18bd d982 203e 1e43 e4bd 88e2 2a3e
00000030: 030e ccbd aaa5 ff3d 42f6 d43d 50a7 17be
00000040: d6f3 903d 523c d4bd 3955 c2bd d83e 17be
00000050: 6fd9 6bbd 2e30 073e 0559 283d 770d f9bd
00000060: 5a2b e5bd ed03 2dbe e6bf b1bd 9504 26be
00000070: 375b bc3d 6195 5abd c85a 01bd cf76 7ebd
